…
tch_size = 8 decoder_layer = DecoderLayer(embedding_size, heads, hidden_size) print(decoder_layer) print(decoder_layer.parameters) x = torch.rand(batch_size, 16, embedding_size) memory = torch.rand(batch_size, 16, embedding_size) src_mask = torch.rand(batch_size, 1, 16) trg_mask = torch.rand(batch_size, 16, 16) output = decoder_layer(x, memory, src_mask, trg_mask) print(output.shape) 输出结果如下 :\n1 2 3 4 5 6 7 8 9 10 11 12 13 14 15 16 17 18 19 20 21 22 23 24 25 26 27 28 29 30 31 32 33 34 35 36 37 38 39 40 41 42 43 44 45 46 47 48 49 50 51 52 53 DecoderLayer( (self_attn): MultiHeadAttention( (value): Linear(in_features=64, out_features=64, bias=False) (key): Linear(in_features=64, out_features=64, bias=False) (query): Linear(in_features=64, out_features=64, bias=False) (fc_out): Linear(in_features=512, out_features=512, bias=True) ) (src_attn): MultiHeadAttention( (value): Linear(in_features=64, out_features=64, bias=False) (key): Linear(in_features=64, out_features=64, bias=False) (query): Linear(in_features=64, out_features=64, bias=False) (fc_out): Linear(in_features=512, out_features=512, bias=True) ) (feed_forward): FeedForwardNetwork( (liner1): Linear(in_features=512, out_features=2048, bias=True) (relu): ReLU() (liner2): Linear(in_features=2048, out_features=512, bias=True) (dropout): Dropout(p=0.1, inplace=False) ) (residuals): ModuleList( (0-2): 3 x ResidualConnection( (norm): LayerNormalization() (dropout): Dropout(p=0.1, inplace=False) ) ) ) \u0026lt;bound method Module.parameters of DecoderLayer( (self_attn): MultiHeadAttention( (value): Linear(in_features=64, out_features=64, bias=False) (key): Linear(in_features=64, out_features=64, bias=False) (query): Linear(in_features=64, out_features=64, bias=False) (fc_out): Linear(in_features=512, out_features=512, bias=True) ) (src_attn): MultiHeadAttention( (value): Linear(in_features=64, out_features=64, bias=False) (key): Linear(in_features=64, out_features=64, bias=False) (query): Linear(in_features=64, out_features=64, bias=False) (fc_out): Linear(in_features=512, out_features=512, bias=True) ) (feed_forward): FeedForwardNetwork( (liner1): Linear(in_features=512, out_features=2048, bias=True) (relu): ReLU() (liner2): Linear(in_features=2048, out_features=512, bias=True) (dropout): Dropout(p=0.1, inplace=False) ) (residuals): ModuleList( (0-2): 3 x ResidualConnection( (norm): LayerNormalization() (dropout): Dropout(p=0.1, inplace=False) ) ) )\u0026gt; torch.Size([8, 16, 512]) Decoder 代码报错解决中…\nReferences\n","permalink":"https://Pan-Binghong.github.io/daily-learning/ai/%E5%9F%BA%E4%BA%8Epytorch%E6%9E%B6%E6%9E%84%E6%89%
…
